signlanguage.onnx (onnx, 227312 bytes, 12 tensors)

conv1.weight f4 [6, 1, 3, 3]
000000 68 dc f8 be 6a 99 31 be e5 eb ad be 11 16 95 be
       -0.48605657 -0.17343679 -0.33969036 -0.29118398
000010 30 82 d7 bd a9 02 ec be 56 ed e4 be 7b 12 98 be
       -0.10522878 -0.4609578 -0.44712323 -0.297016
000020 5c 2e 9e be df 49 89 3e aa b3 90 3e ee 0b 6e be
       -0.30894744 0.26814172 0.28262073 -0.23246738
000030 26 82 63 be aa cb 35 3e 64 71 c1 bc db 71 8e be
       -0.22217616 0.17753473 -0.02361364 -0.2782124
000040 f2 67 29 be 2d 3c 19 be 03 2f 09 be 2e 4e 19 3e
       -0.16543558 -0.14964361 -0.1339684 0.1497123
000050 59 21 2c be c4 a8 9f bd aa 48 8f 3d d7 1a 8f be
       -0.16809596 -0.07795861 0.069962814 -0.27950165
000060 5b 4b 09 be 0e c6 38 be 4b 3f 2c be 96 dc e8 3c
       -0.13407652 -0.18044302 -0.1682102 0.028425496
000070 cf 71 40 3e eb 1f a9 3e d0 2a b7 bb d3 c0 6e 3d
       0.18793415 0.33032164 -0.0055898204 0.05828936
000080 54 57 98 be 3a 02 68 3e 82 8c 3b 3b d6 68 bf be
       -0.29754126 0.226571 0.0028617685 -0.3738467
000090 e6 0f 88 be cd 3c 1a 3e ec 06 0d 3e 3e c4 7b be
       -0.2657463 0.15062256 0.13772172 -0.24586579
0000a0 cc 3f cb 3e f0 8c eb 3e b1 ce 92 3e 07 9f 8b 3d
       0.3969711 0.46005964 0.28673318 0.068174414
0000b0 6c 7a 33 3e 62 ec 35 bf 3c 40 05 3d 7e c2 98 3e
       0.17527169 -0.71063817 0.03253196 0.29835886
0000c0 bc 96 7e 3b b6 dd 73 3e 29 84 ba 3e e3 9c 9b 3e
       0.003884717 0.23815045 0.36428955 0.30393133
0000d0 a1 7c 26 be 3c 92 37 bd
       -0.1625848 -0.044817194

conv1.bias f4 [6]
000000 65 27 bd bd 41 70 40 be 5a 5c 63 bd e6 d1 9f 3e
       -0.092360295 -0.18792821 -0.055507995 0.31214827
000010 46 6f 5c be b8 ae 2f 3f
       -0.21526822 0.68625975

conv2.weight f4 [6, 6, 3, 3]
000000 76 b5 05 be e7 e4 3c bd 46 de 0c 3d 72 f1 34 bb
       -0.13057503 -0.046116736 0.034391664 -0.0027609733
000010 45 22 b3 3d ff 9c 05 be d9 2e a5 3d 74 83 cf bd
       0.08746771 -0.1304817 0.08065576 -0.101324946
000020 69 17 88 3d 77 68 80 3d 54 00 9d bc ce d9 db bd
       0.0664509 0.06269925 -0.019165196 -0.10734902
000030 95 b8 82 3d 3a 9c a9 3c b8 77 88 bc bd d6 01 bd
       0.063828625 0.020704377 -0.016658649 -0.03169893
000040 53 50 e7 bc f4 9b 08 be ae b9 48 3c 09 5b 6d bd
       -0.028236544 -0.13340741 0.012251301 -0.057948146
000050 b7 25 f0 3d 63 5d 55 bd 2d 51 b2 bd 55 3a 7b bd
       0.117259435 -0.052091014 -0.08706889 -0.061334927
000060 55 2f c2 3d 91 9c 95 3d be 72 97 bc 95 2e 53 3d
       0.09481684 0.07305253 -0.01848733 0.051558096
000070 dd 9e 41 bd b7 11 19 3d c4 be f5 3d 87 09 99 bd
       -0.047270644 0.03737041 0.11999276 -0.0747252
000080 8b 3c 08 be 58 b5 a1 bb 57 b0 2d bd 7a 98 ba bd
       -0.13304345 -0.004934948 -0.0424045 -0.09111114
000090 f8 30 f7 bd 68 6d e3 bd 5a c0 cb bd a4 e9 f7 3c
       -0.12069887 -0.11104852 -0.099487975 0.030262776
0000a0 6c d6 41 bd c8 1b a9 bd 45 e1 89 bd a6 db 48 3d
       -0.04732363 -0.08257252 -0.0673242 0.049037598
0000b0 68 d2 02 be 63 26 65 bd 5f 97 80 3d 4e 71 f5 3d
       -0.12775576 -0.05594481 0.06278872 0.11984502
0000c0 da 38 da 3d 21 7b b9 3d 55 b3 a3 bc cb 50 90 bd
       0.10655375 0.09056688 -0.019982973 -0.0704666
0000d0 43 29 11 3c 74 5e 81 bd 5e 00 a1 3d 84 1b 93 3c
       0.008859935 -0.06316844 0.07861398 0.017957456
0000e0 1a 2d 76 bc 47 69 96 3b 44 3e 7b 3d 37 76 c2 bd
       -0.0150254015 0.0045901868 0.061338678 -0.09495204
0000f0 c8 20 ce bd 68 bd 41 3d 3a 80 10 3c e7 73 2d 3d
       -0.10064846 0.047299773 0.008819634 0.04234686
000100 7b 88 ff bd 53 9d 87 bd 9b 88 ba bd e7 06 2f 3d
       -0.124772035 -0.06621804 -0.09108087 0.042731192
000110 67 cc 0c be 0c 60 b8 3d 1d 34 b6 bc 56 bf ed bd
       -0.13749848 0.090026945 -0.022241646 -0.1160876
000120 5c ac 11 3d 12 a8 86 bd 1c 76 f6 3d 69 a2 bb bd
       0.035564765 -0.065750256 0.12034246 -0.09161837
000130 35 04 7c bc 2f 02 83 bc 02 98 bc 3d 8f 68 42 3d
       -0.015381862 -0.015992252 0.09208681 0.047462996
000140 6b ea c2 3b 20 fb e5 bc f1 a6 e5 3c 9f 83 b6 3d
       0.005948355 -0.028073847 0.028033705 0.089118235
000150 cc 68 55 3d 0f 78 d5 bd 63 43 97 bc de d1 e7 3d
       0.052101895 -0.1042329 -0.01846475 0.11319326
000160 0c 8b 7a 3b 02 05 9d bc 95 36 f1 bd b1 3d a3 bd
       0.003822985 -0.019167427 -0.11777989 -0.07970751
000170 b8 0e 39 3e a2 a7 c3 3d f6 eb c8 3d bc 11 01 3e
       0.18072021 0.09553458 0.09810631 0.12604421
000180 aa a6 48 3e 6d 9b a6 3d 33 a8 c7 3d 20 a2 09 be
       0.19594827 0.08135114 0.09748878 -0.13440752
000190 04 50 e4 3d 55 41 0a 3e f0 50 66 bc d3 53 56 3e
       0.11148074 0.13501485 -0.014057383 0.20930414
0001a0 29 9d 83 3e d6 36 40 3e 0a 01 85 3e 0d 93 28 3e
       0.2570584 0.18770918 0.25977355 0.16462345
0001b0 22 79 03 3e 13 10 91 bd f4 65 97 3d e1 f9 21 3e
       0.12839177 -0.07083144 0.07392493 0.15817977
0001c0 82 30 55 bd bd d7 1b be e8 f0 ce 3d 8c bc 08 be
       -0.052048214 -0.15219016 0.10104543 -0.13353175
0001d0 55 6c 92 3c 0c cf 18 be 5b a1 0c 3c e6 c0 a3 3c
       0.017873922 -0.14922732 0.008583392 0.019989442
0001e0 99 95 af 3d 8d 4b 6d 3d 02 c6 aa bd 3d fe 02 be
       0.08573455 0.05793338 -0.08338548 -0.12792297
0001f0 ed e9 55 3d 0c 24 cd bd b7 e7 ed bd 28 2a 51 3c
       0.052225042 -0.10016641 -0.11616462 0.0127663985
000200 8c 54 16 be 0f d1 b1 3d 9e 4b 8c bb 0f 60 3a 3d
       -0.1468069 0.08682453 -0.004281475 0.045501765
000210 2d 46 d4 bd d1 58 f6 3c de 48 80 3d aa 8f 17 be
       -0.103649475 0.030071648 0.06263898 -0.14800897
000220 cc 2b 40 3d 61 17 1b 3b 43 4e fe bd a4 5a 05 3e
       0.046916768 0.0023665058 -0.12417271 0.13022858
000230 c5 3e a6 3d 88 b7 8b bd 7a 27 a3 bc e3 ab 06 3e
       0.08117441 -0.06822115 -0.019916285 0.13151507
000240 ac 0e 62 3b f5 07 3b 3e 06 dc 06 3e 0f 68 20 3e
       0.0034493608 0.18264754 0.1316987 0.15664695
000250 6a c4 43 3e 8f fd 19 3e db f1 bd 3d e1 28 64 3d
       0.19117895 0.15038131 0.09274646 0.055703048
000260 c8 e9 11 3e 53 32 bb 3c 3e a6 94 3e a3 8f 92 3e
       0.14249337 0.022851145 0.29033083 0.2862521
000270 9d 32 57 3e fe 73 63 3e c2 c5 63 3e e0 6b 74 3e
       0.21015401 0.22212216 0.22243407 0.23869276
000280 89 e8 70 3e ac ae 14 3e 75 7c b9 bc b1 f9 be bd
       0.23526205 0.14519757 -0.022642354 -0.093249686
000290 2e fc 00 bc 00 eb cc bd 21 61 5d 3d 61 73 df 3d
       -0.007872624 -0.1000576 0.054047707 0.10910679
0002a0 b8 f9 e7 3d 9b 9b c1 3c 46 aa b0 3d 2c d6 c9 3d
       0.11326927 0.023633769 0.08626227 0.09855303
0002b0 77 35 84 37 eb 22 19 bc 85 26 82 3d 20 2a 8b bc
       1.5760523e-05 -0.009346704 0.06355003 -0.01698786
0002c0 e3 23 13 3e ad 4c ee bd 78 64 26 bc 64 de bd bd
       0.14369158 -0.116357185 -0.01015579 -0.09270933
0002d0 30 d6 1d 3a 24 68 b3 bc 2c e8 85 bd d5 7b 45 3d
       0.0006020991 -0.021900244 -0.06538424 0.0482138
0002e0 ed 44 e7 3d e5 c7 ab 3d b4 10 49 3d 6f e8 05 3e
       0.112924434 0.08387736 0.049088195 0.13076948
0002f0 6a 51 ec 3d a8 9f 66 bd de 29 3a bd b3 14 31 3d
       0.11538966 -0.056304604 -0.045450084 0.04323263
000300 43 26 86 bc 92 5e a8 3b 1f 22 cc 3d bb e2 fd bd
       -0.016375666 0.005138227 0.099674456 -0.12396761
000310 9a 58 ea 3d a7 ad 06 3d 58 8f dd 3d a6 69 99 bd
       0.11442681 0.03288045 0.10818356 -0.07490854
000320 aa d7 f5 3d ee 03 8c bd 65 07 10 bd 69 3b a5 bd
       0.12004025 -0.06836687 -0.035163302 -0.08067972
000330 ec cc 6f bd fa 6e f9 3c 6a ad db 3c 9b ba eb 3d
       -0.058545038 0.030448426 0.026816089 0.115102015
000340 57 aa 5a 3d 3c 7b aa 3d 3a 22 88 3d 12 35 53 3d
       0.053385105 0.08324286 0.06647153 0.051564284
000350 df 33 39 3d 90 a0 15 bd 7c 9b ba bc 53 2f 94 3d
       0.045215484 -0.036530077 -0.022779219 0.07235589
000360 a2 0e 95 bd 4d 83 85 bc 3d 7e 58 ba a2 fd 0d bd
       -0.072781816 -0.01629796 -0.0008258557 -0.03466571
000370 58 c5 d2 bd c9 2a bc bd e2 46 29 3e 00 7e 09 3e
       -0.102915466 -0.09187848 0.16530946 0.13426971
000380 b3 ec 80 3d fa 13 e0 bc 5b 2a 00 bd 8c 7f 08 be
       0.06295147 -0.027353276 -0.031290393 -0.13329905
000390 e6 21 55 3c f1 80 0f bd de a5 90 bd c5 b5 f4 3d
       0.01300857 -0.035035077 -0.07062887 0.11948732
0003a0 8d d1 00 3e 77 65 39 3e 66 f9 c2 3c 2c f2 72 3d
       0.12579937 0.18105112 0.023800563 0.059312984
0003b0 68 a3 76 bd 5c 92 24 bb 1a 62 04 be 5b 0b cd bd
       -0.06021443 -0.002511165 -0.12928048 -0.100119315
0003c0 1d 7d 10 3d 37 81 cc bd c2 e0 22 3e e7 35 cd bd
       0.035275567 -0.09985583 0.15906051 -0.10020047
0003d0 4a aa 83 3d ef 87 5f 3d 64 65 ee 3d 63 0e 26 3e
       0.064289644 0.054572996 0.116404325 0.16216426
0003e0 0e 5a 6b 3e 6f 8b 05 3e 92 d0 d2 3d 90 de 31 3e
       0.22983572 0.13041471 0.10293688 0.17370057
0003f0 e6 59 9e bb e2 88 83 3d 2d 9c 3a bc 72 ea eb 3d
       -0.004832494 0.06422593 -0.011389774 0.11519326

conv2.bias f4 [6]
000000 2c af 32 bd 5a c9 af bc ad 66 8a 3e 47 c4 04 bd
       -0.04362409 -0.021458317 0.2703146 -0.032413747
000010 74 e6 07 3e 21 d5 93 bd
       0.13271505 -0.072183855

conv3.weight f4 [16, 6, 3, 3]
000000 45 fc 95 3c 3c b4 2a 3d 73 47 cf 3b 7f 72 5a bd
       0.018308768 0.04167579 0.006325656 -0.05333185
000010 64 9d 19 bd 69 4d e8 bd 2f b2 ac 3b 38 32 c1 3d
       -0.037503615 -0.1134289 0.0052702646 0.094334066
000020 74 e9 86 3d 83 f3 e3 bd 17 9d 06 bc 71 10 cb bd
       0.065874964 -0.111304305 -0.008216164 -0.09915245
000030 20 08 54 3b 16 6f b3 bd 2a 01 e4 3d a2 7f a0 3d
       0.0032353476 -0.08761422 0.111330345 0.07836844
000040 a2 fa fe 3d 6d d0 e7 bd eb b7 88 3d 0d 15 0c bc
       0.12450148 -0.11319051 0.066757046 -0.008549941
000050 32 cd f8 bd c3 64 93 3d 08 e9 5d 3d 86 b6 aa bd
       -0.12148513 0.07196953 0.054177314 -0.08335595
000060 f4 21 00 bd 1a 6d a8 bc ec de 5b 3d 3e 30 b2 3d
       -0.03128238 -0.020559836 0.05367939 0.08700608
000070 69 16 bf bd 68 92 e9 3d 99 ef c1 3c b3 01 3d bd
       -0.09330446 0.11404878 0.02367382 -0.0461442
000080 71 04 a4 bd f9 7f 77 bd f6 7a 57 bd db 77 39 bd
       -0.0800866 -0.06042478 -0.0526075 -0.04528032
000090 b4 3b f2 bd dd ee e7 bd ad ea 04 be f5 52 53 bd
       -0.11827794 -0.113248564 -0.12980147 -0.051592786
0000a0 76 26 0a 3e 77 6a 45 3d c8 a1 e2 bd 96 37 fa 3c
       0.13491234 0.048197236 -0.110660136 0.030544084
0000b0 bd 69 3f bc 67 82 e9 bd 70 7c f0 bd 78 6d a0 3d
       -0.011682925 -0.114018254 -0.117424846 0.078333795
0000c0 19 64 7c 3d 3a 65 a1 3d 34 d1 b2 bd 5f 9b 2e 3d
       0.061618898 0.078806356 -0.087313086 0.042628642
0000d0 df 4e df bd b6 d2 d3 3d d7 13 c0 3c d5 9e d7 bd
       -0.10903715 0.10342924 0.02344696 -0.10528342
0000e0 a2 11 be bd 29 be fb bd 30 5a 40 bc 75 c3 84 bc
       -0.09280707 -0.122921295 -0.011740252 -0.016206482
0000f0 13 07 4f bd d5 cb f0 bd 8d 14 14 bc 71 eb f6 3c
       -0.050543856 -0.11757628 -0.009038103 0.030141564
000100 32 76 08 be 12 21 ad bd e4 b4 40 bd 55 af be bd
       -0.13326338 -0.08453573 -0.04704751 -0.09310786
000110 bd 8d e5 bd 31 7e 79 3d d4 57 ec bb 38 71 8d 3a
       -0.11208675 0.06091136 -0.0072126184 0.0010791188
000120 b3 d4 f5 bc b8 d7 ff 3c ca 77 03 3e 7a 6c f9 bc
       -0.03000865 0.031230792 0.12838665 -0.030447233
000130 1a 87 db 3d e4 9e f8 bd c9 1b e4 3d 4b ac ba bd
       0.10719128 -0.12139681 0.11138112 -0.091148935
000140 42 cb ed bd 5f af 98 bd 65 c2 1f 3d 12 f5 14 bb
       -0.11611034 -0.074553244 0.03900375 -0.002272908
000150 a3 46 97 bd b2 92 7b bd 95 71 41 bc 13 34 e5 3a
       -0.0738652 -0.061419196 -0.011806865 0.0017486833
000160 54 f3 05 bd ec 3a c9 3d ad 6e a4 bd 69 64 00 bc
       -0.03270276 0.098256916 -0.08028922 -0.00783644
000170 59 dd 7a bc 3e ca 86 3d 71 27 bf bd 4d ef 71 bd
       -0.015311562 0.065815434 -0.09333695 -0.059066106
000180 77 d8 89 3d 16 1a 31 bd 65 11 e2 3d e4 03 d9 bc
       0.067307405 -0.043237768 0.11038474 -0.026491113
000190 ef 2b c0 bd 0a 39 35 3d a2 38 aa bd b0 ae 96 bb
       -0.0938338 0.04424385 -0.08311583 -0.004598461
0001a0 a2 9e e9 bc 42 df aa bd 4c 17 2e 3d cd ab 8a bd
       -0.028518025 -0.08343364 0.042502686 -0.0677105
0001b0 4f eb 2c 3d f4 d9 c1 bd 18 59 ba ba c4 02 04 bd
       0.042216595 -0.094653994 -0.0014217226 -0.0322292
0001c0 dd ad 57 bd 9d 46 36 bc ed 8c b2 ba ec 95 07 bc
       -0.052656043 -0.011125234 -0.0013622321 -0.00827549
0001d0 30 2d 8a 3c 68 e8 0c 3e 76 7f 1a 3e df b4 fc bc
       0.01686725 0.13760531 0.15087685 -0.030847965
0001e0 07 5e 16 3e 01 8b c6 bc 6d 1e 82 bd 56 2d 03 3d
       0.14684306 -0.024236204 -0.063534595 0.032025658
0001f0 0e 25 a5 3d 53 c7 32 3d ca 78 aa bd 12 91 4b 3e
       0.08063708 0.04364712 -0.0832382 0.19879559
000200 6e 13 82 bd aa 64 16 bd 41 68 33 bd c5 2b d2 3d
       -0.06351362 -0.036717094 -0.043800596 0.102622546
000210 3e 77 f1 3d 3c ed 3f 3e f6 50 25 3e d5 88 ef 3d
       0.11790322 0.18742841 0.16144165 0.116960205
000220 87 0f 13 3d b2 b7 9b 3d 42 48 9c 3d 08 aa 46 3d
       0.03590348 0.076033965 0.076309696 0.048502
000230 67 8f e1 bd c8 bf 3b 3d c7 82 d9 3d 41 15 bc 3d
       -0.1101368 0.045837194 0.10620647 0.09183741
000240 1e 72 fd 3d b8 cf 89 3d 31 ed 02 3e 16 f2 1c 3c
       0.12375282 0.06729072 0.12785794 0.009579202
000250 73 d4 8d bd 7b 36 13 3e 40 f6 9e bd a7 f0 ae bd
       -0.06925287 0.14376251 -0.07761812 -0.085419945
000260 21 4b 49 3d 6e 2e 27 3e 39 e5 c1 bd 0d f8 48 be
       0.049143914 0.16326305 -0.09467549 -0.19625874
000270 1b 69 04 be 42 b9 65 3d 70 27 08 be e9 2d 79 bd
       -0.1293072 0.05608488 -0.13296294 -0.0608348
000280 da 39 1e be 65 f6 e7 bd 8a aa 01 be 99 4e c3 3d
       -0.15451756 -0.11326293 -0.12662712 0.09536476
000290 4a 42 a2 bd a7 a7 61 bd 6e 19 bc bd de 01 09 3e
       -0.079228 -0.055091526 -0.09184538 0.13379619
0002a0 a9 ec 7f bd b3 e4 39 bd 0c 5a 99 bb ac 7e fc bd
       -0.062481556 -0.04538412 -0.004679924 -0.12328848
0002b0 03 25 1c be 13 29 ea bd ed 01 f5 3d 00 30 d7 bd
       -0.15248494 -0.114336155 0.11963258 -0.10507202
0002c0 a6 b9 81 3c 7b d7 03 3e 3e e0 e0 bd 97 67 09 3d
       0.015835594 0.12875168 -0.10980271 0.033546057
0002d0 0e 03 01 be 49 cd ef bd 8e 0f eb 3c db 95 b2 bc
       -0.12598822 -0.11709077 0.02869394 -0.021799972
0002e0 f5 f8 01 be 7a 5a 1f 3d 5b cd f2 bd c3 67 39 bc
       -0.12692626 0.038904645 -0.11855575 -0.011316243
0002f0 7a 77 12 3d 26 48 ac bd 8c 79 56 3d 74 9f fc 3d
       0.035758473 -0.08412199 0.05236201 0.12335101
000300 d0 ff c0 3d 00 f8 2b 3d ae e8 df 3d f9 1b 3d bb
       0.09423792 0.041984558 0.10933052 -0.0028855784
000310 b7 d4 0a 3d b4 68 dd 3d f2 13 d5 bd 86 31 99 3c
       0.033894267 0.10810986 -0.10404195 0.018700372
000320 47 ca 84 bd 69 00 8e bd 02 47 07 bd fc aa c3 3d
       -0.06483894 -0.06933672 -0.033026703 0.09554097
000330 07 cc 6b 3c 47 ac 92 bd ca 6e 1b be 67 a8 b8 3d
       0.014391906 -0.071617655 -0.15178981 0.09016495
000340 69 48 97 bd 3e 5f 25 bd 34 0b 5d bd 0a 1a 32 3c
       -0.07386858 -0.040374033 -0.053965762 0.010870466
000350 22 12 8c 3d 5b cc ec 3d 97 88 62 3c 04 f2 23 3e
       0.06839396 0.11562415 0.013826511 0.1601029
000360 3b 89 b1 3c 40 7e db bd 95 00 0a 3e 3d 12 01 3e
       0.021671882 -0.1071744 0.13476785 0.12604614
000370 0c c8 d6 3d d5 cc aa 3c 26 4d 99 3d 1b 59 ff bd
       0.10487375 0.020849625 0.07485418 -0.124681674
000380 0d 75 b5 bd 79 e9 3d bc d2 6f 06 be 72 40 22 3b
       -0.08860216 -0.011591309 -0.13128594 0.002475765
000390 6d d6 04 be de cf 32 3a 84 29 7f 3d 7b e1 e2 bc
       -0.12972422 0.0006821136 0.06229545 -0.027695408
0003a0 41 8c 00 be e9 33 e5 bc 39 ad 3f bc f0 22 57 3b
       -0.12553503 -0.027978854 -0.011699014 0.003282722
0003b0 d3 4b 27 be 38 89 13 be 9f c3 8a bd 41 4c bb bd
       -0.16337518 -0.14407814 -0.06775593 -0.09145404
0003c0 29 85 22 bc 09 e2 2b bc 3c 42 c2 bc ea f4 00 3e
       -0.009919443 -0.010490903 -0.023713224 0.12593427
0003d0 d7 f6 a3 bd 59 2d a2 3d a7 cd 9e 3d 14 a6 f4 bc
       -0.08006065 0.07918806 0.07754069 -0.029864348
0003e0 4a 15 df bd 44 b1 82 bd bd 0b 90 bb 8a 18 e2 3c
       -0.108927324 -0.06381467 -0.0043959306 0.027599592
0003f0 25 d9 e2 bc f8 b5 47 bd 5d cd 7a 39 d7 03 2e be
       -0.027691433 -0.048757523 0.00023918362 -0.16993652

conv3.bias f4 [16]
000000 8e c0 5c bd 7e 89 88 3d 83 0c b0 3b 47 0f f3 bc
       -0.053894572 0.066668496 0.0053725853 -0.02967037
000010 38 ac d6 3d 96 14 0a 3e c2 73 95 3d 96 dc f6 3d
       0.10482067 0.13484415 0.0729747 0.12053792
000020 f3 91 10 be 8b 35 4f 3d 58 3a d8 bd b0 ae 6d 3e
       -0.14118175 0.050588172 -0.10558003 0.23211169
000030 28 71 01 3e 4e e8 4f bd ad ed 48 bd 4c 7d 52 bd
       0.12640822 -0.050758652 -0.04905479 -0.051389024

fc1.weight f4 [120, 400]
000000 29 05 68 3c e2 78 96 bc 0f f1 0a bd af 80 b7 bc
       0.0141613865 -0.018368188 -0.033921298 -0.022400228
000010 38 d8 0e 3b 0d 12 23 3c 19 2d 71 3c ba 82 f6 3c
       0.0021796357 0.009953034 0.014720225 0.030091632
000020 71 70 03 3c 78 53 f4 3c dd b0 7f bc 81 d2 5f bc
       0.008022414 0.029824957 -0.015606132 -0.013661028
000030 13 db 91 3c 0a 71 a5 bb ee eb 03 bc 2d 44 f0 bc
       0.017804658 -0.0050488757 -0.0080518555 -0.029329384
000040 5e 06 26 bd f6 0a 3e bd 21 70 42 bd 74 5c 04 3d
       -0.040533416 -0.046397172 -0.047470216 0.032314733
000050 c8 d6 2e bd 61 2e e9 3c a5 de 2e bd 68 21 22 3d
       -0.0426853 0.028464498 -0.0426928 0.03958264
000060 7e 6c 09 3b a6 f8 06 bd 38 4c 29 3d ac 35 48 bc
       0.0020969207 -0.032951973 0.041332453 -0.012219828
000070 6f 4a 38 3d a5 d9 03 bd 5a 6f 0b bb 48 36 b0 bb
       0.04499286 -0.032189984 -0.0021276088 -0.0053775646
000080 cf d4 31 3d 51 f5 dc 39 b2 f2 d6 bc 42 af dc 3c
       0.04341584 0.00042144445 -0.026238773 0.026939038
000090 74 23 13 bc 9d c0 fc 3b 3e 6b f8 bc 3f 1c b6 3b
       -0.008980621 0.007713391 -0.030324575 0.0055575664
0000a0 39 c4 b1 bc 7c 08 19 3d 09 f6 31 3d fb c6 3c 3d
       -0.021700012 0.037361607 0.043447528 0.0460882
0000b0 42 35 e6 3c ca 4e c0 bc 99 23 70 bc 31 22 e4 3c
       0.028101567 -0.02347507 -0.014656925 0.027848335
0000c0 6b 7a 4c bd b9 4b 0c 3c 2f 57 b8 3c f3 c2 8b 3c
       -0.049921434 0.008562976 0.02250251 0.017060732
0000d0 43 36 fc bc 99 00 a6 bb f9 c5 12 bc 65 09 5d 3c
       -0.030787593 -0.005065989 -0.008958333 0.013491009
0000e0 51 09 4e 3b c4 19 1e bd 42 72 ee 3c ae 71 e3 3c
       0.0031438658 -0.03859879 0.029107217 0.027764168
0000f0 d4 bc c8 3c 3e 7d ce 3c 6c 5d 3f bd 76 f7 07 3c
       0.024504103 0.025206205 -0.046719953 0.008298745
000100 1e 02 18 bd 14 09 44 bd 4b df 07 bc 02 59 d2 3c
       -0.037111394 -0.04786022 -0.008292983 0.025677208
000110 8e 78 15 bd e2 b7 26 bd 76 14 2e 3d b7 c3 75 bc
       -0.036491923 -0.040702708 0.04249998 -0.015000275
000120 85 1b fb 3c 7a 2a a9 bc c1 d2 54 3c 9c 30 b9 3c
       0.03065277 -0.020650137 0.012989701 0.022606187
000130 c1 c2 0e bc 04 ec 39 bd 77 75 19 3d 1b 9b 0c 3c
       -0.008713425 -0.045391098 0.03746554 0.008581902
000140 82 e8 1d bd 7e 4e 2f bd 2a 42 35 3c 13 a6 2c 3c
       -0.038551815 -0.042799465 0.011063138 0.010537642
000150 cb f3 22 3d 67 34 33 bd 03 08 cd bb cc c8 9f bc
       0.03978328 -0.043751147 -0.0062570586 -0.019504927
000160 9a d2 3a 3d 90 8b 49 bd 1b 36 31 3c 31 43 e1 bc
       0.045611 -0.049205363 0.010816122 -0.02749786
000170 a4 85 0a 3d 09 fa 4f bd 90 ff fd b9 3a 79 8f bc
       0.033818856 -0.05077556 -0.0004844633 -0.01751386
000180 ed 03 0a bb 26 2e 93 bb 21 e1 d1 3c 08 38 48 3c
       -0.002105947 -0.0044915853 0.025620045 0.01222039
000190 04 44 22 3d 30 80 10 3b 58 ce c2 3b ba 0d 6a 3c
       0.039615646 0.0022049062 0.0059450082 0.014285499
0001a0 7a 99 03 bd 47 63 58 bd 3b 25 64 bc 2b fc 5d bc
       -0.03212879 -0.052829053 -0.013924892 -0.013548891
0001b0 2d 83 15 bd 3a 98 4e bd ba aa b8 3c 7e 54 ea 3c
       -0.036502052 -0.050438143 0.022542346 0.028604742
0001c0 74 7e 32 bd 39 10 d9 bc c6 12 7a bc c3 f4 ab 3c
       -0.043577626 -0.026496993 -0.015263265 0.020990735
0001d0 3f f7 30 bd 93 a9 ce bc 2f 2e c6 3b 8f 55 b8 bc
       -0.043204542 -0.025227344 0.006047986 -0.022501735
0001e0 56 73 fb 3c 1b 67 c2 3c 25 a0 0f bd 87 9e 2b bd
       0.030694645 0.023730805 -0.035064835 -0.04189923
0001f0 f7 7a 69 3c 7e 23 7a 3b ad ec df bc 55 1a bc bc
       0.0142505085 0.0038168128 -0.027334535 -0.022961775
000200 e8 54 9a bc 43 52 21 bd 86 2c a3 bc ac af 81 ba
       -0.018839315 -0.03938509 -0.019918691 -0.0009894273
000210 53 70 57 bc 2a 82 f8 bc 2e 2a 26 bd 7b f7 32 bd
       -0.013149339 -0.030335505 -0.04056757 -0.043693047
000220 d0 27 bc ba 65 f0 35 3d 8c 59 23 bd 35 1a 10 bd
       -0.0014355127 0.04441871 -0.03988032 -0.035181243
000230 3c de 29 3d 9c 11 2e bd fc 5e 0d bd 32 53 f7 bc
       0.041471705 -0.042497262 -0.034514412 -0.030191038
000240 0f 46 a5 bb 60 f1 6c 3c c7 e2 c5 3c 28 86 87 bb
       -0.005043752 0.014461845 0.024155987 -0.0041358657
000250 56 10 28 bd b9 e9 81 3c 96 c8 ad bc c9 4f b3 3b
       -0.041031204 0.015858518 -0.02121381 0.0054721576
000260 c3 6f d4 3c 41 73 94 ba ae 90 2d bd 09 46 c8 3b
       0.025932198 -0.0011325852 -0.042374305 0.0061118645
000270 4c 31 28 3c 63 f5 42 bc 72 03 96 3c 46 a4 0c 3d
       0.01026566 -0.011899325 0.01831219 0.03433635
000280 9e 51 0e bd 47 68 1a bd 0a ef 03 bc 0b 49 a5 3c
       -0.034745805 -0.037697103 -0.008052597 0.020176431
000290 23 e2 51 3c 44 c4 b3 3c b9 a5 ee 3b 8e f4 45 3d
       0.012810263 0.021944173 0.0072829393 0.04832893
0002a0 e2 67 10 3b 84 66 2e bd 59 b6 03 3d ae da ba 3c
       0.0022034575 -0.042578235 0.032156322 0.022809353
0002b0 77 aa f9 bc ff fd 4e 3d 62 1d d9 3c 52 5f 2e bd
       -0.030476792 0.0505352 0.026503269 -0.042571373
0002c0 4f 38 17 3d 94 f0 fa 3c 63 0b 20 bd 76 be fa 3b
       0.036918934 0.030632295 -0.03907336 0.0076520992
0002d0 72 49 f6 bc c3 67 36 bd 57 e4 49 3a 5c ac 82 3c
       -0.030064318 -0.04453255 0.0007701567 0.015951328
0002e0 9a 15 d2 3c 7b 75 de bc 56 23 03 bd 0a 39 00 bd
       0.025645066 -0.027155628 -0.03201612 -0.031304397
0002f0 ef e6 07 3d 72 0c 5e bd e4 b6 af 3c 5d 29 1c 3d
       0.03317922 -0.054211088 0.021449514 0.038125385
000300 c8 f9 82 bc be cc 01 3c 24 d6 68 bd 22 e5 2f bb
       -0.015988246 0.0079223495 -0.056844845 -0.0026839455
000310 b9 b1 30 3d b9 26 75 bc d9 02 0e 3d 91 9d ec bc
       0.04313824 -0.0149628455 0.034670684 -0.028883727
000320 19 46 e9 3c aa c4 c2 3b c1 9d 01 3d a9 7a ca 3c
       0.028475808 0.0059438543 0.031644586 0.024716692
000330 2d ff 8d bc 76 18 04 bd 10 ea 6b bc fe 56 16 bd
       -0.017333591 -0.03224989 -0.014399067 -0.036704056
000340 35 10 3a 3d 26 46 b8 bc 09 d7 97 3c 9c 10 43 3b
       0.045425612 -0.022494387 0.018535154 0.0029764539
000350 e5 ca 1a bd c1 17 01 3d 87 51 b5 3c 13 fe f6 3c
       -0.03779115 0.031516794 0.022133602 0.030150449
000360 b1 13 3e 3c 29 f5 f3 3c b5 15 0e 3d 60 2d 1d 3d
       0.0116013745 0.029779987 0.03468867 0.03837335
000370 3a 30 b2 bb 46 5d 71 bc cf 17 08 bc 19 fc 19 bd
       -0.005437878 -0.014731711 -0.008306458 -0.037593935
000380 bb d4 01 bd 15 1c 83 bb 5f 93 31 3c b1 3a 04 3d
       -0.031697016 -0.0040011504 0.010838359 0.032282535
000390 17 f4 4a 3d 4f eb 18 3d 11 64 46 3d 9e a3 fd 3c
       0.04954919 0.037333783 0.048435275 0.030961808
0003a0 ee bb 2e bc ad ab 6b 3b 93 21 98 3b aa 3f 49 bd
       -0.010664923 0.003596048 0.0046426742 -0.04913298
0003b0 81 f4 17 3c 88 64 69 3c be 95 af bc 13 ac 26 3d
       0.009274603 0.01424516 -0.021433707 0.040691447
0003c0 f0 e1 27 bc 01 fb 1e bd bc 3b d3 3c 38 31 1b bc
       -0.010246739 -0.038813595 0.02578532 -0.009472184
0003d0 63 79 41 bd 38 82 52 bd 80 a9 ec bc 9b 8b 37 bc
       -0.047234904 -0.051393718 -0.028889418 -0.011202718
0003e0 a6 b6 06 3d 43 8d ec 3c 86 19 2d 3d ee 6d 0f 3d
       0.03288903 0.028875953 0.04226067 0.035016946
0003f0 e8 58 02 3d cf 90 35 bd fe fa 48 bd c7 66 9c bc
       0.03182307 -0.044327553 -0.04906749 -0.019091977

fc1.bias f4 [120]
000000 5f cd 48 bd 26 98 80 bb 69 af 92 3c 81 71 12 bc
       -0.049023982 -0.0039243875 0.017905908 -0.008938194
000010 6c 2c 51 bd 7c 73 3e bc 0b c7 0e bc 4d 47 52 bd
       -0.051067755 -0.011624213 -0.008714448 -0.05133753
000020 27 62 9b 3d e9 df a0 3c 4e d2 7e 3c 02 b2 22 bd
       0.075870804 0.019638019 0.01555307 -0.039720543
000030 f6 4c 69 bc 9a ad ab ba 70 8f eb bb ef c4 23 3d
       -0.01423954 -0.0013098002 -0.00718873 0.039982732
000040 48 44 72 3c 36 71 1a bc 21 fd f6 bb 4a 48 91 3c
       0.014786787 -0.009426406 -0.0075374995 0.017734665
000050 5d c0 7e 3d 4e 17 8f 3d 63 c7 61 bc 3b 45 a4 ba
       0.06219517 0.06986867 -0.013780448 -0.0012532839
000060 3c c9 ca 3c 40 4f b6 bc f7 7e fa bc f7 1e 37 3c
       0.02475416 -0.022254586 -0.03057812 0.011176816
000070 15 6e 1c bd 66 13 12 bc 82 c3 06 3b 19 37 60 bd
       -0.03819092 -0.008915758 0.002056331 -0.054740045
000080 20 01 8f 3d a9 17 2a 3d 6b f0 f8 3b 89 ec 6f 3d
       0.069826365 0.04152647 0.0075970194 0.058575187
000090 17 ad d5 3c 5e 53 14 3c 77 c6 53 3d 0d 15 d8 bc
       0.026083512 0.009053079 0.051702943 -0.026377225
0000a0 84 af 07 3d d8 7e 31 bc f0 09 0d bd 12 15 2a 3b
       0.03312637 -0.010833465 -0.034433305 0.00259525
0000b0 39 e5 06 3d 50 59 fc bc 9b 63 2c 3d 2c 02 a4 bb
       0.032933448 -0.030804306 0.04208718 -0.0050051417
0000c0 09 80 7e bc 3f 0c 7e 3d b6 12 74 3d 2d 51 15 bd
       -0.015533456 0.062023398 0.059588157 -0.03645437
0000d0 b7 c3 fa bc 75 e9 2e 3d ef 8e af bc 1d 92 4d bd
       -0.030610902 0.04270311 -0.02143046 -0.050188173
0000e0 df 66 47 bd 24 b2 06 bd e8 8e 84 3a 0b 45 2d 3d
       -0.04868209 -0.032884732 0.001011339 0.042302173
0000f0 0d d0 74 bc 37 0b 1c bd 4d 35 23 3d be ec 2f 3d
       -0.014942181 -0.038096633 0.039845753 0.042950384
000100 f7 5f 8a 3a 46 04 93 3d c1 13 3c 3d c7 76 c7 3d
       0.0010557164 0.071785495 0.045917276 0.09739452
000110 78 49 57 bc bd ce 8f bc 0f f3 74 bd 23 9b 0f 3c
       -0.013140075 -0.017554635 -0.05980211 0.008765015
000120 e5 f5 c9 bc d3 33 9b bb 89 15 26 3d 52 61 d2 bc
       -0.024653384 -0.0047364025 0.04054788 -0.025681172
000130 29 4d 57 3c 1f 19 6c 3c b1 49 57 3d c2 d8 49 3d
       0.013140955 0.014410286 0.052560512 0.049278982
000140 61 89 7d 3d 98 c5 44 bc 6e e6 ff 3b db 73 a9 3b
       0.061898593 -0.012010001 0.007809452 0.0051712818
000150 93 76 bb 3b c0 90 85 bc 1c f4 a8 3c 8a d9 c0 bc
       0.0057209223 -0.016304374 0.020624213 -0.02354123
000160 fd 70 1f bd 23 ac db 3c bf cd 23 3d ad bb fa 3c
       -0.038926113 0.02681548 0.039991137 0.030607069
000170 12 32 35 3c dc 92 1a bc a7 55 35 bd 7c 23 4e bd
       0.011059301 -0.009434428 -0.044271138 -0.05032681
000180 4b 02 a4 3d 74 a6 16 3d 2c 18 05 3d 38 52 85 bc
       0.0800825 0.036779836 0.032493755 -0.016274557
000190 15 95 90 3c cc 46 4d ba 32 52 10 bb 0d b2 37 bd
       0.017649213 -0.0007830679 -0.0022021648 -0.044847537
0001a0 3d ae 83 3d c8 f3 34 bb 16 68 88 bc af 37 85 3d
       0.06429718 -0.0027611125 -0.016651195 0.065047614
0001b0 d7 3a 7a 3d e3 b8 0d bc 5c 83 17 bd c6 e7 ac bc
       0.06109127 -0.008650037 -0.03699051 -0.021106612
0001c0 69 31 26 3d 2b 92 91 bb 4d 9d ff 3b 10 20 17 3d
       0.040574465 -0.0044424734 0.007800734 0.03689581
0001d0 97 25 5c bd 34 bd 32 bd 57 de 32 3d 58 85 ad 3c
       -0.053746786 -0.04363747 0.04366907 0.021181747

fc2.weight f4 [48, 120]
000000 d4 62 93 3d 45 c7 e8 3c 5a a1 3c 3d 8c 52 78 bd
       0.07196584 0.028415332 0.046052314 -0.060625598
000010 0a 0f d6 bd 69 b2 72 bc aa c4 86 bd 21 91 5c ba
       -0.10452087 -0.014813044 -0.065804794 -0.000841396
000020 3e cd 4b 3d 26 7f 16 bc 0e 29 1a bd 4e 4e 97 3d
       0.04975628 -0.009185588 -0.03763681 0.07387982
000030 fb 37 a1 3d ff 59 9c 3d 25 2a e8 3d e1 6a 0f bd
       0.078720056 0.07634353 0.113361634 -0.035014037
000040 3c 40 ab bd cc d4 a3 bd 6c b4 12 3c a0 cc 97 3d
       -0.08361861 -0.07999572 0.008954149 0.07412076
000050 71 d6 ce bc de 28 94 bd 4b a8 93 3d de 2d 9c bd
       -0.025248738 -0.07234357 0.07209834 -0.07625936
000060 6e 58 93 bc da d8 96 3c fe dd ef 3c b5 cd b9 bd
       -0.017986502 0.01841395 0.029280659 -0.09072439
000070 4f 8b 80 3b f9 92 a1 bd ff b3 61 3d 75 03 42 3d
       0.003922857 -0.07889361 0.0551033 0.047366578
000080 75 f4 2e bd 41 e1 6d 3d d3 94 e0 3d 1c a2 27 3c
       -0.0427136 0.058076147 0.10965886 0.010231521
000090 50 48 04 3e f7 22 db bb 74 12 e4 bd 10 18 37 3d
       0.1291821 -0.0066875177 -0.11136332 0.044700682
0000a0 c1 10 ac 3d 37 c4 58 3c e3 fb e1 bd a3 16 7e bd
       0.08401633 0.013230375 -0.11034372 -0.062033307
0000b0 96 c4 99 bd dd dd 0b bd 13 0e c7 bd 32 5f 8d bd
       -0.07508199 -0.034147132 -0.09719481 -0.06902923
0000c0 f4 08 87 bd 44 ab 1b 3b ba 34 a4 bd fd 68 aa 3c
       -0.065935045 0.0023753205 -0.08017869 0.020802015
0000d0 75 4e 82 3d 88 bd ce 3d 9d 27 59 bd b6 11 5e 3d
       0.06362621 0.10094744 -0.053016294 0.05421611
0000e0 3c 73 9a bd 19 53 48 3d a6 07 aa 3d d2 d3 a9 3d
       -0.075415105 0.048907373 0.0830224 0.08292355
0000f0 3e 5c 1c 3d 38 77 dd bb 36 c1 b0 bd db 95 d8 bd
       0.038173907 -0.0067585967 -0.08630602 -0.10575458
000100 8e 2d e4 3c 2d 27 c6 bc f1 36 1a bd 61 ab ca 3d
       0.027853753 -0.024188602 -0.037650052 0.09895969
000110 00 91 0b 3d 4a 43 2c bd 2e 60 af 3d f5 17 02 3d
       0.03407383 -0.04205636 0.08563267 0.03176113
000120 c2 2d e9 3c 55 b0 1b be a7 7e 2b 3b 5b a7 02 3d
       0.028464202 -0.15203984 0.002616802 0.031897884
000130 70 c5 6c bd bd db bb 3d ca ad 87 bc df e3 fe 3d
       -0.05780548 0.09172771 -0.016562361 0.12445807
000140 cb e7 aa bc 9c 47 79 3c 20 75 ad 3d de 2d f7 3b
       -0.02086248 0.015214827 0.084696054 0.0075433096
000150 43 26 83 3d d3 a9 81 3c dc 0d e7 3c d4 5e 9c bd
       0.06403782 0.015828049 0.02820485 -0.076352745
000160 84 86 9e 3d 0b 5c 04 3b ce a5 40 3d 94 70 5a 3d
       0.077405006 0.0020196463 0.047033124 0.05333002
000170 84 7a 21 bd 73 0d 7d 3d 00 07 d1 3c bb 96 91 3d
       -0.03942348 0.061780404 0.025516033 0.07108828
000180 9f d9 fc 3d f2 83 75 3c 68 66 26 bd f6 88 a0 3d
       0.123461954 0.0149850715 -0.040625006 0.07838623
000190 b5 c3 7b 3d a2 f0 96 3c b1 79 16 bb f0 e8 47 3d
       0.061465938 0.01842529 -0.0022960717 0.04880613
0001a0 d3 22 9a 3d 7c 1f a6 3d 06 24 80 3d 94 2e 82 3d
       0.075261734 0.08111474 0.06256871 0.0635654
0001b0 f8 55 79 bd f0 6c 30 bd 79 a8 8a bd 0f c5 bd bd
       -0.060873 -0.04307264 -0.06770415 -0.092661016
0001c0 0b e8 f3 bd 80 d1 e2 3d 7b 43 84 3d 5c 44 50 3d
       -0.11909493 0.11075115 0.064581834 0.050846443
0001d0 2c db 41 3d 0e 58 ca 3b 35 78 15 bd 3c 48 bf 3d
       0.04732816 0.0061750477 -0.03649159 0.093399495
0001e0 fb 3d 83 bd 91 13 4c bd fc 84 c8 3d 84 c9 6a 3d
       -0.06408306 -0.049823347 0.0979099 0.057321087
0001f0 ca 5f a6 bc 6a 85 15 3e 46 99 40 bd a2 9e ae bb
       -0.020309348 0.14601675 -0.047021173 -0.005328969
000200 98 0b bd 3d 2f 1f 20 ba a0 58 7c bd a2 76 7f bd
       0.09230727 -0.00061081623 -0.061607957 -0.062368996
000210 98 f6 b8 3d 1b c1 55 bd f0 f5 b8 bd fb a6 8b bd
       0.09031409 -0.052186113 -0.09031284 -0.06818958
000220 ad b3 22 bd 29 cc 9a bc 72 65 19 bd 66 ed 55 3b
       -0.039722133 -0.01889618 -0.03745026 0.0032642721
000230 af 69 ae 3c c4 1d 97 3d 83 a9 f0 3c 8c 69 87 3d
       0.021290628 0.07378724 0.029377704 0.06611928
000240 71 a2 95 bd 26 08 94 bd 09 41 8a 3d d5 db 84 3d
       -0.07306374 -0.07228117 0.06750686 0.06487242
000250 f4 bd ce 3d 75 16 2f bd f3 c2 29 3d 45 ab c8 bd
       0.100948244 -0.042746026 0.041445684 -0.09798292
000260 93 61 bb bd f0 f6 1f 3c f7 68 9b 3d 43 14 64 3d
       -0.0914947 0.009763464 0.0758838 0.055683386
000270 15 ec 7c 3d 7e fc c9 bd 65 c7 50 3d 69 9f 9e bd
       0.061748583 -0.09862612 0.050971407 -0.07745249
000280 68 8d 8b 3d b1 26 09 bd d2 9f f9 bc 62 f5 98 bd
       0.068140805 -0.033484165 -0.030471716 -0.07468678
000290 71 f1 17 bd a3 2c f2 bd df 75 e5 3a 66 85 71 bd
       -0.03709549 -0.1182492 0.0017506442 -0.05896511
0002a0 04 54 31 bd 5b 1f f0 3d 8b 2e 38 3e ff 09 86 3c
       -0.043293014 0.117247306 0.17986505 0.016362188
0002b0 fd cc a2 bc 89 03 28 3d f4 b0 82 3d 30 60 b1 bc
       -0.019873137 0.041018996 0.063814074 -0.021652311
0002c0 42 c8 66 bd 41 1b f0 3d 1f 24 03 bd 46 85 ae bd
       -0.056343324 0.11723948 -0.03201687 -0.08521514
0002d0 40 72 90 3d 09 cf ce 3c 3a 8e e0 3d b8 0c 3a bd
       0.070530415 0.025245206 0.109646276 -0.045422286
0002e0 f7 cd 0a bc ca 45 3a 3d 96 6e a8 3d d6 e3 c4 bc
       -0.008471957 0.045476712 0.082242176 -0.024034422
0002f0 80 58 bd 3d 0c c9 7f 3a 57 35 c0 3c 96 ec 1c be
       0.09245396 0.00097574363 0.023462934 -0.15324625
000300 b2 c4 3f 3d fc 26 85 bc 65 05 1e bd c9 e7 05 bc
       0.046818443 -0.01625394 -0.038579363 -0.008172938
000310 75 57 02 3e b3 e0 f1 3d 59 57 00 bd cc 54 59 3c
       0.12728675 0.11810436 -0.0313333 0.013264846
000320 5d 3e 5e bc fc 2a 13 3e 7c 85 50 3c 98 34 14 3d
       -0.013564673 0.14371866 0.012727138 0.03618297
000330 61 16 78 3d 85 ec 23 bd 01 e9 85 bd b4 37 6e bd
       0.060568217 -0.040020484 -0.065385826 -0.05815859
000340 09 38 7d bd a6 75 bd bd 6e 09 a6 bd 97 d9 bb 3d
       -0.061821017 -0.09250955 -0.08107267 0.09172361
000350 3d c3 56 3b bc 40 47 3c 28 74 2c bd 0b 76 97 3d
       0.003277018 0.01216143 -0.042102963 0.07395562
000360 46 7b 18 3d 38 f7 b2 3c c4 45 f8 bc fa 81 74 b9
       0.037226938 0.021846399 -0.030306704 -0.00023318073
000370 f5 11 45 3e 90 61 2c 3c ef dd 43 bd e1 c2 03 3d
       0.19245131 0.010521308 -0.047819074 0.032168273
000380 5c 01 d1 bb 1c 4d ae bd a6 7a 8e bd 01 2a 4b bd
       -0.006378336 -0.08510801 -0.06956987 -0.049600605
000390 20 e0 2e be a3 97 c0 bd 7d 40 27 bd 43 f1 b3 bc
       -0.17077684 -0.094039224 -0.040832985 -0.021965628
0003a0 84 9b 7f 3d e2 6f df 3c 93 46 b8 bd 2d 43 40 bd
       0.06240417 0.02727503 -0.08997836 -0.046939064
0003b0 d3 cc a6 bd 85 55 52 3d d7 20 0a bd b4 f4 5c bd
       -0.08144536 0.05135109 -0.033722725 -0.053944305
0003c0 89 0d ba bd 82 cf 7b bd 18 9c a9 3c 12 45 b3 3d
       -0.09084613 -0.06147719 0.020704314 0.087534085
0003d0 a8 cb cc 3c 76 47 90 3b 57 d2 aa bd f4 76 72 3d
       0.024999455 0.00440305 -0.083409004 0.059195474
0003e0 30 e6 0f bc 38 e8 85 bc ae b9 5f bd 68 39 60 3d
       -0.008782908 -0.016346082 -0.054620437 0.054742247
0003f0 78 dd 39 3c 8c 5d a8 3c 20 bf 9e bc c8 2c 77 3c
       0.011344306 0.02055242 -0.019378245 0.01508636

fc2.bias f4 [48]
000000 07 86 68 bc 07 16 ea 3d ac a7 86 3c 2e d6 4b 3d
       -0.014192111 0.11429983 0.016437374 0.049764805
000010 64 9e 53 3e 53 71 18 3b 03 b9 3d bd a7 24 3c 3d
       0.2066589 0.0023260906 -0.04631902 0.045933392
000020 6f f0 da bc 03 22 6d bd a0 88 1a 3e 2e 8e a8 3d
       -0.026725976 -0.057893764 0.15091181 0.082302436
000030 bd c5 3c 3e 8c 36 86 bd e6 ba 4e 3d 44 a2 bd 3d
       0.18434806 -0.06553373 0.05047121 0.09259465
000040 7a d9 84 3e cd 72 6d 3e 6b 18 d3 3d 42 c1 9e bc
       0.2594717 0.23188324 0.10307392 -0.019379262
000050 2d 54 ee 3c df 67 09 3e ee 9b b4 3d 41 e4 25 3b
       0.029092873 0.1341853 0.08818804 0.0025313052
000060 fe 22 87 bd b1 0b 97 bd 88 70 32 3d 5e c7 a2 bd
       -0.06598471 -0.07375277 0.04356435 -0.079481825
000070 93 d6 06 3e af 3e 84 bd 6d c0 ea bc 28 33 0b bd
       0.13167791 -0.064572684 -0.028656209 -0.033984333
000080 e2 7b f5 3c b7 f3 2b 3d 46 87 25 3d 0c bb c1 bd
       0.029966298 0.04198047 0.04041221 -0.094595045
000090 e7 01 be bd d3 ba fc bb 49 22 23 3b 9f 69 81 bd
       -0.092777066 -0.007712701 0.0024892262 -0.06318974
0000a0 54 fd 23 3e 2e 17 fa 3c d7 6e b4 3d af 8a f9 3d
       0.16014606 0.030528631 0.088102035 0.12184655
0000b0 84 92 c7 3b 1c 31 39 3e e1 b4 9d 3d f0 f7 9d bd
       0.006090464 0.1808514 0.077005155 -0.07713306

fc3.weight f4 [24, 48]
000000 90 c4 22 bb d3 b1 c6 3e 20 fa 9a bc fd 37 55 3e
       -0.0024836399 0.38807544 -0.018918097 0.20822139
000010 97 c7 19 3f 12 cb 94 3c bd 80 03 be d7 5f aa bd
       0.60070175 0.018163238 -0.12842079 -0.08319061
000020 76 ca 1e be c2 d5 b5 3d 7a 46 1c 3e 95 f8 8a be
       -0.1550692 0.08878662 0.1526126 -0.27142778
000030 49 b7 ba 3c 66 5c e3 bc 55 62 f2 bb b0 cf 30 be
       0.022792475 -0.02775402 -0.007396976 -0.17266726
000040 52 91 bc 3e 76 99 36 3d 14 db f4 bd 82 9d ea bd
       0.3682962 0.044579946 -0.11955848 -0.114558235
000050 88 d9 af bd b0 09 f9 bc f5 30 89 3b a9 8b f4 bd
       -0.08586413 -0.030400127 0.0041867443 -0.119407006
000060 50 73 87 3d ea a6 48 3c 7f 89 05 3e 02 0f 4c be
       0.06613791 0.012246827 0.13040732 -0.199276
000070 11 fd 59 3e 66 4a c0 3c 93 fe 0d be bb a3 31 bd
       0.21287943 0.023472976 -0.13866644 -0.043369036
000080 9e 02 4a be 31 41 3f 3e c5 87 67 3e f3 0d ab 3d
       -0.19727561 0.18677212 0.22610386 0.0835227
000090 de e4 c8 bc ae 1f 7e 3e 76 55 36 bd 78 32 81 bd
       -0.024523195 0.24816772 -0.044515096 -0.06308454
0000a0 a0 6b b8 3e df 1f 9c 3d 5f 15 b0 3c eb 82 67 3e
       0.3601961 0.076232664 0.021494566 0.22608535
0000b0 ef 84 39 3e 20 43 95 3e ba 85 e8 ba fe 4e 57 be
       0.18117116 0.29152775 -0.0017740049 -0.21026227
0000c0 c0 bc 3c 3e f9 58 75 3e e0 ac 43 bd 29 d0 dd bd
       0.18431377 0.23959722 -0.04777229 -0.10830719
0000d0 c1 25 70 3e 32 22 6c bd 61 f6 15 be cf 23 48 3d
       0.23451902 -0.0576498 -0.14644767 0.048862275
0000e0 8c 5e e6 bc 47 a8 a3 3c 6b 4f ba 3c 3f c3 1d bd
       -0.028121255 0.019977702 0.022742948 -0.03851628
0000f0 ee c7 95 3e 7d d9 fe bd d8 53 b5 3d b5 f8 b9 bd
       0.29254097 -0.12443826 0.088538826 -0.0908064
000100 69 26 7c bd f1 19 f7 3d 9d c9 e8 3e 21 3b a4 bd
       -0.06156007 0.12065495 0.4546632 -0.080190904
000110 d2 f3 c1 3d 65 b3 77 be 07 72 e8 bd 25 fe f3 bb
       0.09470333 -0.24189527 -0.11349874 -0.007446068
000120 52 e6 21 bd 20 8a 40 bc b3 7d 4c 3e 88 fa 60 39
       -0.03952629 -0.011751682 0.19969825 0.00021455635
000130 fc 8d 69 3e 78 14 d7 3d af e6 04 3c 1a dd 8a 3d
       0.22808069 0.10501951 0.00811164 0.06780453
000140 e3 2b 24 bd 18 f3 aa 3d bf 23 8a 3e c3 6e 09 3e
       -0.040080916 0.08347148 0.26980397 0.13421158
000150 04 c0 e9 bd b8 64 33 bd f4 a7 dc bd 4e 08 ff 3d
       -0.11413577 -0.043797225 -0.10774222 0.12452756
000160 a9 0a 49 be cd 08 93 bd bd 88 ac 3e 70 9f 5b 3e
       -0.19632973 -0.07179413 0.33698073 0.2144754
000170 9f 32 0c be c3 b5 1e 3e 36 12 60 3c 90 49 47 bd
       -0.13691185 0.15499024 0.013676217 -0.04865414
000180 d8 82 b2 bc 9a de 42 3e 96 ec e3 bb f4 1b 10 be
       -0.021790907 0.19030228 -0.0069556935 -0.14073163
000190 8e cd ae 3e a9 5a 1d bd 3d a4 b0 3d f8 76 ca bd
       0.341412 -0.03841654 0.08625076 -0.09885973
0001a0 fe 00 12 3e 3f d6 63 3d 12 c2 49 bb 6d 33 42 3e
       0.14258191 0.055624243 -0.003078584 0.1896493
0001b0 a6 c8 dc 3c b8 f8 02 3c ea 13 34 3d 40 a9 cf 3d
       0.026951145 0.0079938695 0.043964304 0.10139704
0001c0 db b0 80 3e fe 8a b7 3c 95 a1 53 3e de 94 5a bc
       0.2513493 0.022405144 0.20667107 -0.013341157
0001d0 e1 e8 ea 3d c0 6c a9 3e 9b 80 dd bc b7 e8 40 bd
       0.114701994 0.33090782 -0.027038863 -0.047096934
0001e0 58 b0 f8 bd 0e 5b ac 3d d4 2e 3b 3d 19 35 42 3e
       -0.1214301 0.08415805 0.045698956 0.18965568
0001f0 55 f3 32 3e f8 bd 87 bd 53 1d 9f bd df b8 11 bc
       0.17475636 -0.066280305 -0.07769265 -0.008894174
000200 e1 b2 eb bd dd fd 8c bd e0 f2 8e 3d d8 98 04 3e
       -0.11508728 -0.06884358 0.069799185 0.1294893
000210 8c 99 ca bd dd 0b 0d bc ab 44 ae bd 36 0b 91 bd
       -0.09892568 -0.008608785 -0.08509191 -0.070822164
000220 91 02 4f 3e da b7 0b 3e 8d be 64 3e 1e 50 95 be
       0.20215823 0.13644353 0.22338314 -0.29162687
000230 5d ac 27 3e b8 8b c9 bd 84 a2 42 3e ab ff 2c 3e
       0.16374345 -0.09841102 0.19007307 0.16894405
000240 fe ff d0 3b 79 1c 0b 3e 62 71 04 bd c3 8d 1f 3e
       0.006378173 0.1358508 -0.032334693 0.15581422
000250 01 9d e4 bc 29 55 b9 bd ad fc 1c bc f5 8e a3 3c
       -0.027906897 -0.09049446 -0.009581727 0.019965628
000260 66 a7 18 be b9 88 1c 3d 93 6b 29 3e f1 92 b8 bd
       -0.14907607 0.038216326 0.16544943 -0.09012402
000270 61 36 4a 3e d8 ab b1 3d 0a d6 af 3d bb a0 9c bd
       0.19747306 0.08675355 0.085857466 -0.076478444
000280 81 4c ff 3d 60 1b 69 3e c9 87 8f be 16 f0 f6 3c
       0.12465764 0.22764349 -0.28033283 0.030143779
000290 4a 26 9c bb b9 ba 4f 3d e7 3b f9 3c 8c 01 87 bd
       -0.0047653066 0.050715182 0.030424071 -0.06592092
0002a0 49 54 10 bd 49 02 82 bd 76 a2 08 3e 94 27 c5 3e
       -0.03523663 -0.06348092 0.13343224 0.38506758
0002b0 ba 0a ed bd 4a ea 0e be 88 dc 7b bc 64 61 89 3d
       -0.115743116 -0.13956562 -0.015372403 0.06708029
0002c0 08 b6 36 3e 1d 0d ba 3e 93 d2 43 3e ae a1 61 bd
       0.17842877 0.3633813 0.19123296 -0.05508583
0002d0 84 02 e5 bd e2 ec 31 bd 37 59 72 bc 58 7f fe bd
       -0.111821204 -0.0434388 -0.014791778 -0.12426633
0002e0 0f ce 36 3e 35 87 8a bd e7 22 b8 3d 41 da 80 be
       0.17852043 -0.0676407 0.08991032 -0.25166515
0002f0 22 f2 23 3e 65 bb b2 3e 29 27 fc bd 8d 41 53 bd
       0.16010335 0.34908596 -0.12312157 -0.051576186
000300 2d 1c 08 be 1d a0 68 be 6a d1 64 3d 4a 0e 7b 3c
       -0.13291998 -0.22717328 0.055863775 0.015323231
000310 86 57 ad 3e e9 78 2c bd 2b 09 18 be e2 4a 59 3d
       0.33855838 -0.042107496 -0.14847247 0.05304993
000320 39 7b 2e 3d 59 c2 a9 3d 8c f0 c6 3e f6 1a 6e 3d
       0.042597983 0.08289022 0.38855398 0.05813118
000330 49 10 00 3c 2e 7b 15 3e c1 87 95 3c 64 db b3 3d
       0.007816383 0.1459777 0.01825321 0.0878208
000340 6a 6a 7e 3e 1d 2d 06 3f f7 62 2b bd ae 21 17 bd
       0.24845281 0.5241259 -0.041842427 -0.036897354
000350 8e 75 2f 3d 7a 14 58 3e e3 0b c8 3d 7c c6 9f bd
       0.04283672 0.21101561 0.09767892 -0.0780153
000360 d4 fa 97 bd dd ae ee bc 58 05 22 3d 93 1f 9e 3e
       -0.074208885 -0.029136116 0.039555877 0.30883464
000370 bf d1 0c be b7 d1 07 be b9 60 9b 3d e5 10 b3 bd
       -0.13751887 -0.13263594 0.07586808 -0.08743457
000380 0b 83 c7 bc 23 32 8a 3d db c0 85 3e 97 cc 93 3d
       -0.024354478 0.06747844 0.261237 0.07216757
000390 54 25 b1 bc 84 2b 02 be 1b 7d 87 3b f2 5f fb 3c
       -0.021624245 -0.12711912 0.004134787 0.030685399
0003a0 c2 b5 05 be 7d a7 63 3d 51 2b bc bd 5e ee 01 be
       -0.13057616 0.05557965 -0.091879494 -0.12688586
0003b0 97 fb a7 3e fb 04 0d 3d 9c 8e 34 bd db b5 7a 3e
       0.32809135 0.034428578 -0.044081315 0.24483435
0003c0 1d 3a 51 3d 18 bf 37 3c 32 71 01 be bf 34 81 3c
       0.05108081 0.011214994 -0.12640837 0.015772222
0003d0 23 13 c8 bd ad b4 c5 bd 39 69 3b be 51 21 e5 bb
       -0.09769275 -0.09653602 -0.18301858 -0.006992497
0003e0 16 f1 e0 3d 4b 2f cd bd 0e 64 9f 3e 07 97 db 3d
       0.109834835 -0.10018786 0.31131023 0.107221656
0003f0 a5 83 cb 3d 7b 91 cd bd d3 81 8a bd da 7b 8b 3e
       0.099372186 -0.10037514 -0.06763043 0.2724293

fc3.bias f4 [24]
000000 c3 33 ae 3e 10 f3 ad 3d fb c7 9e 3e 67 51 8a 3e
       0.34023866 0.08493626 0.31011948 0.2701523
000010 23 55 0c 3e 55 67 0f 3f 0b c4 97 3e f5 a5 4a bd
       0.13704352 0.5601705 0.29641756 -0.049474675
000020 40 7e 80 be 2c 69 34 be 63 ff 74 be ac c7 81 be
       -0.2509632 -0.17618245 -0.23925547 -0.2534765
000030 e0 f6 48 be 34 0c 4e be f1 b7 c7 bc ab 80 19 be
       -0.19625425 -0.20121843 -0.024379702 -0.14990489
000040 93 89 0b bd 6d c0 1b be 4b b1 f2 bc ed 6a 14 be
       -0.034066748 -0.15210123 -0.029625556 -0.14493914
000050 22 ae 00 be 96 76 fa bc 99 fb 0d be d4 c3 0e be
       -0.12566426 -0.030574124 -0.13865508 -0.1394189
